src/simcbctgenerator/configs/M730_2_Layers.pt (torch, 801711 bytes, 16 tensors)

weight f4 [32, 1, 3, 3, 3]
0	0x3dac8696	0.08424108
1	0x3e1bb633	0.15206222
2	0x3d3dd715	0.046347696
3	0x3e240114	0.16016036
4	0x3e915745	0.28386894
5	0x3e0f8bc3	0.14018159
6	0x3cba8bab	0.022771677
7	0x3ddfcef6	0.109281465
8	0x3cbe0f4c	0.023200653
9	0x3d618f2f	0.05506819
10	0x3da5499a	0.08070679
11	0xbd6a0678	-0.057135075
12	0x3d3b61a5	0.045747418
13	0x3e18860b	0.14894883
14	0x3ad3d058	0.0016160114
15	0xbdb8aac2	-0.090169445
16	0xbbcb2a59	-0.0062001166
17	0xbd8f8efa	-0.070096925
18	0x3b3c245a	0.002870819
19	0xbcc14932	-0.023594473
20	0xbe1f2338	-0.15540779
21	0xbd015d9b	-0.03158341
22	0xbd31998e	-0.04335933
23	0xbe2c17ad	-0.16805907
24	0xbe1e13d2	-0.15437248
25	0xbe0cabdb	-0.13737433
26	0xbe30d2bd	-0.1726789
27	0x3b521753	0.003205736
28	0xbbdf59da	-0.006816131
29	0x3b392f84	0.0028257081
30	0xbccffc5e	-0.025388893
31	0x3c118da8	0.008883871
32	0xbcbe3992	-0.023220811
33	0xbc09d4e0	-0.00841257
34	0x3d0e5e80	0.03475809
35	0x3b861547	0.004091892
36	0x3c6d4994	0.014482874
37	0x3c24d885	0.010061388
38	0x3b8d2420	0.004307285
39	0x3cbc91aa	0.023018677
40	0x3da216f4	0.07914534
41	0x3ccb1f03	0.024795061
42	0x3d0b0336	0.03393861
43	0x3dc4c965	0.096087255
44	0x3d0d5e59	0.034513805
45	0xbc9036ac	-0.017604195
46	0xbc595bd9	-0.013266527
47	0xbbd254ab	-0.0064187846
48	0xbc9a9d2f	-0.01887378
49	0x3ca908cb	0.020634076
50	0xbcc4649c	-0.023973756
51	0x3c859fed	0.01631161
52	0x3d4f79c6	0.05065324
53	0xbc1bb21f	-0.009502917
54	0x3ea7005b	0.3261746
55	0x3d2f3e04	0.042783752
56	0x3e834afd	0.2564315
57	0xbe4e28d5	-0.20132764
58	0xbf28794e	-0.65810096
59	0x3e360913	0.17776899
60	0xbd58979b	-0.052878957
61	0xbdb563da	-0.08856936
62	0x3e402a55	0.18766148
63	0x3d7249f0	0.059152544
64	0xbe9f453d	-0.31107512
65	0xbe243166	-0.16034469
66	0x3e2f6e62	0.17131951
67	0x3da627e5	0.08113078
68	0xbe7f6817	-0.24942051
69	0xbe15506c	-0.1458146
70	0x3edf1caf	0.4357657
71	0x3dffee8d	0.12496672
72	0xbe160eae	-0.14654037
73	0xbe369f17	-0.17834125
74	0x3de86976	0.1134824
75	0x3e904f42	0.2818547
76	0x3f1aeb4f	0.605153
77	0xbe2b8d57	-0.16753136
78	0xbead5ab4	-0.33858263
79	0x3e1e846a	0.154802
80	0xbea10675	-0.3145024
81	0xbdc9c698	-0.09852332
82	0xbea74b50	-0.32674646
83	0x3a68e5f8	0.00088843657
84	0xbd8a354a	-0.06748445
85	0xbe84d1c6	-0.25941294
86	0xbbc0ca39	-0.005883482
87	0x3e3bff1e	0.18359038
88	0x3da23e0a	0.07921989
89	0x3e26fa61	0.1630645
90	0xbe611e63	-0.21984248
91	0xbed8c0b8	-0.42334533
92	0xbbfe0c2f	-0.0077529172
93	0xbdcf7460	-0.10129619
94	0xbe82d6bb	-0.2555445
95	0x3dbdfa18	0.09276217
96	0x3e92ff07	0.28710195
97	0x3e506179	0.20349683
98	0x3eb8c870	0.36090422
99	0xbd9024f5	-0.07038299
100	0xbe490a8d	-0.19632931
101	0x3d297b37	0.041377272
102	0xbd354b48	-0.044261247
103	0xbe2eacb2	-0.17058066
104	0x3d8a78c0	0.067613125
105	0x3e316862	0.17324975
106	0x3d96f9e7	0.07371884
107	0x3e6d76b2	0.2318981
108	0x3dc11186	0.094271705
109	0x3ddc2f0e	0.107511625
110	0x3e4cc357	0.19996391
111	0x3e25cf4b	0.16192357
112	0x3ebce3a0	0.36892414
113	0x3ec4e30b	0.3845447
114	0x3e7a5dc4	0.24449831
115	0x3ee0a059	0.43872336
116	0x3eb77886	0.3583414
117	0xbe17e6e1	-0.14834167
118	0xbe163937	-0.14670263
119	0x3cdd2665	0.026995847
120	0xbe86706d	-0.2625765
121	0xbdace8e6	-0.08442859
122	0x3d6d2937	0.057900634
123	0xbcd692de	-0.026193079
124	0x3d86d638	0.06583828
125	0x3c3a0e6f	0.01135598
126	0xbe63c120	-0.2224164
127	0xbe4b6383	-0.1986218
128	0x3dd12212	0.102115765
129	0xbf05d115	-0.5227216
130	0xbedad677	-0.4274175
131	0xbd741aad	-0.059595753
132	0xbe2a9c7e	-0.1666126
133	0xbe4ac807	-0.19802867
134	0xbdcd72bd	-0.1003165
135	0xbc97494e	-0.018467572
136	0x3cd29e99	0.02571039
137	0xbc723406	-0.014782911
138	0xbdaafa8e	-0.08348571
139	0xbd42195c	-0.047387466
140	0xbddf7b14	-0.10912147
141	0x3d55a3fd	0.052158345
142	0x3db84c98	0.08998984
143	0x3d297218	0.041368574
144	0x3c84e7de	0.016223844
145	0x3d02f470	0.031971395
146	0xbc28bcd4	-0.010298926
147	0xbd19cdba	-0.03754971
148	0x3c577093	0.013149398
149	0xbd874dd1	-0.06606639
150	0x3e051fd5	0.13000424
151	0x3e5b8734	0.21438295
152	0x3e174032	0.14770582
153	0x3b905e34	0.004405761
154	0xbb33e541	-0.0027449878
155	0xbd3cb0f0	-0.04606718
156	0xbdbd97a5	-0.092574395
157	0xbd3f6d55	-0.046735127
158	0xbda3d6ba	-0.0799994
159	0x3cfb9ac8	0.030713454
160	0x3de42eec	0.11141762
161	0x3d897d95	0.06713406
162	0x3d3be3f3	0.045871686
163	0x3d284ed5	0.041090805
164	0xbdd955f5	-0.10612098
165	0x3dd7f0e3	0.10543992
166	0x3c2a434e	0.010392023
167	0xbea39743	-0.3195134
168	0x3e70f91d	0.23532529
169	0xbc70f890	-0.014707699
170	0xbe472e92	-0.19451359
171	0x3cac132f	0.021005241
172	0xbd9bb8fe	-0.07603644
173	0xbeb6c2a7	-0.35695383
174	0x3ea5b865	0.32367244
175	0x3e2d410a	0.16919342
176	0xbece760c	-0.40324438
177	0x3f1858ab	0.59510297
178	0x3ea27082	0.31726462
179	0xbd2db6a9	-0.042410526
180	0xbd83c9bd	-0.06434963
181	0xbe09011b	-0.13379328
182	0xbe861fbb	-0.26196083
183	0x3bb4ff8e	0.0055236286
184	0xbcb8f29f	-0.022576628
185	0xbebcc07b	-0.368656
186	0x3e9dc399	0.30813292
187	0x3e3ba559	0.18324794
188	0x3c19b944	0.00938255
189	0x3c67f1b1	0.014156745
190	0xbc90ea7b	-0.017689934
191	0xbd3e80fa	-0.04650972
192	0x3d9e8cca	0.07741697
193	0x3cf6f54d	0.030146265
194	0xbcf3854f	-0.029726652
195	0x3d024002	0.031799324
196	0xbcdc3538	-0.026880845
197	0xbd8ae48a	-0.067818716
198	0x3da6fe04	0.081539184
199	0x3d3d83f5	0.046268422
200	0x3d3c9d44	0.046048418
201	0x3e16a198	0.1471008
202	0x3e097086	0.1342183
203	0x3d92a2c6	0.07159953
204	0x3d7934a2	0.06084121
205	0x3d60701f	0.054794427
206	0x3bbf0cd2	0.0058303857
207	0x3b7e41b9	0.0038796498
208	0xbcc2cddc	-0.023779802
209	0xbd109db2	-0.03530664
210	0x3d58b287	0.052904632
211	0x3d127051	0.035751645
212	0x3d122e27	0.035688546
213	0xbbe0244e	-0.0068402654
214	0xbd36806b	-0.044556063
215	0xbd1de25c	-0.03854595
216	0x3d873daa	0.06603558
217	0xbb8bc92c	-0.004265925
218	0x3d85e531	0.065378554
219	0xb8ee2e99	-0.00011357404
220	0xbdaff6a7	-0.08591967
221	0xbc908baf	-0.017644731
222	0x3d7dfa88	0.062006503
223	0xbb8a5895	-0.0042219856
224	0x3dad7678	0.08469862
225	0xbc895ae6	-0.016766977
226	0xbdb49d93	-0.088191174
227	0xbcacd416	-0.021097224
228	0xbdadd8d8	-0.08488625
229	0xbe29a2b6	-0.16565976
230	0xbde32492	-0.110909596
231	0xbcc1a1e9	-0.023636775
232	0xbdb7f95d	-0.08983109
233	0xbc628382	-0.013825299
234	0x3d628cbe	0.055310003
235	0xbbf7fdfc	-0.007568119
236	0x3d80cce6	0.06289081
237	0xbba18937	-0.0049296874
238	0xbdd41a81	-0.10356618
239	0xbcca01eb	-0.024659118
240	0x3d86b967	0.065783314
241	0xbcbfdaf9	-0.023419844
242	0x3d8e55a5	0.06949929
243	0x3d3d5b96	0.04622992
244	0x3d4ba4c8	0.049717695
245	0x3d48e4e4	0.049046412
246	0x3d0af1e6	0.0339221
247	0x3c8ee370	0.017442435
248	0x3cf90069	0.030395703
249	0x3d08c5df	0.03339183
250	0x3ce8ff6e	0.02844211
251	0x3ce281eb	0.02764984
252	0x3cd85034	0.026405431
253	0x3caa69bd	0.020802373
254	0x3cf1906f	0.029487817
255	0x3c5fa6e5	0.013650631

bias f4 [32]
0	0xb79fd72a	-1.905447e-05
1	0xb4a45600	-3.0609954e-07
2	0xba2d0b22	-0.0006601085
3	0xb89fde9d	-7.623176e-05
4	0x37dfbe86	2.6672391e-05
5	0xb813aa18	-3.5205943e-05
6	0x3753ed54	1.2631837e-05
7	0xb73aec53	-1.1141487e-05
8	0x35a075a7	1.195517e-06
9	0x37180396	9.060741e-06
10	0xba0120f0	-0.00049258675
11	0x36ea532d	6.9834264e-06
12	0xb70bbf85	-8.329637e-06
13	0xb60ee762	-2.1294331e-06
14	0xb68dd0e4	-4.2264455e-06
15	0x3868d8da	5.551507e-05
16	0x373f2843	1.1393861e-05
17	0x3583e9b8	9.828282e-07
18	0xb7f57949	-2.9262754e-05
19	0x36b602bb	5.4243405e-06
20	0xb610ca19	-2.1575308e-06
21	0x3893dbb1	7.050427e-05
22	0xb4cab474	-3.775673e-07
23	0xb662c9f2	-3.3794172e-06
24	0x3860b03b	5.356989e-05
25	0x37aae617	2.0372723e-05
26	0xb5521e59	-7.827526e-07
27	0x36c0d5d6	5.7469397e-06
28	0xb66ddc50	-3.544399e-06
29	0xb6008395	-1.9150077e-06
30	0x37b6f4c8	2.1810076e-05
31	0xb800c318	-3.0699273e-05

weight f4 [32]
0	0x3e27635f	0.16346501
1	0x3e8c05b1	0.27348092
2	0x3e9667b3	0.2937599
3	0x3e726022	0.23669484
4	0x3e80cd5c	0.25156677
5	0x3e685740	0.22689533
6	0x3e9d2c85	0.30698028
7	0x3e333c1e	0.17503402
8	0x3ed28b6a	0.4112199
9	0xbd946110	-0.07245076
10	0x3ec63a10	0.38716173
11	0x3e5b6f69	0.21429218
12	0x3e222d11	0.15837504
13	0x3e63475c	0.2219519
14	0x38db4bf5	0.00010456882
15	0x3e31728f	0.17328857
16	0x3e3b96fe	0.18319318
17	0x3eb306f6	0.34966248
18	0x3e3a825a	0.18213788
19	0x3be9a459	0.0071301875
20	0x3e30877c	0.17239183
21	0x3e3ad03d	0.18243499
22	0x3e851ecb	0.26000056
23	0x3d3b4c77	0.04572722
24	0x3ec189fd	0.3780059
25	0x3e964e47	0.29356596
26	0x3e53a2c7	0.20667563
27	0x3ec456f7	0.383476
28	0x3e9aafe6	0.30212325
29	0x3e784bf9	0.24247731
30	0x3e3a6a01	0.182045
31	0x3ea930e2	0.33045107

bias f4 [32]
0	0x3e0e521d	0.13898511
1	0xbec9a96d	-0.39387074
2	0x3f0a8adb	0.54118127
3	0x3e82e42c	0.25564706
4	0x3e27d388	0.16389287
5	0xbc130079	-0.008972281
6	0x3e0134da	0.12617818
7	0x3d2d8e42	0.042371996
8	0xbede235b	-0.4338635
9	0xbe1a3b82	-0.15061763
10	0x3eec88e0	0.46198177
11	0x3df8a52c	0.12140879
12	0x3d6ada9a	0.05733738
13	0x3d2e163f	0.042501684
14	0xbce0b9c3	-0.027432328
15	0x3e05a91f	0.13052796
16	0x3cad94d3	0.021189129
17	0xbe3c396a	-0.18381277
18	0x3d0b6f1c	0.03404151
19	0xbcdd32a5	-0.027001688
20	0xbe87c9bc	-0.265211
21	0x3e3997f8	0.18124378
22	0x3e43e1f3	0.19129162
23	0xbb793620	-0.0038026646
24	0xbe06a9fc	-0.13150781
25	0xbcece4b6	-0.028917652
26	0xbd0d9f52	-0.034575768
27	0xbe39632c	-0.18104237
28	0xbe101b0e	-0.1407282
29	0xbe22eca2	-0.15910581
30	0x3c1fce09	0.009753712
31	0x3e8f06d2	0.2793489

weight f4 [32, 32, 3, 3, 3]
0	0x3d06ceee	0.032912187
1	0x3ce87848	0.028377667
2	0x3be3202f	0.006931327
3	0x3c8aeb8d	0.016958022
4	0xbb9101d1	-0.0044252654
5	0xbc9c7811	-0.01910022
6	0xbbe987cf	-0.0071267853
7	0xbcfd5428	-0.030923918
8	0xbd12d6c8	-0.035849363
9	0x3d0ff118	0.035142034
10	0x3ca68574	0.020327307
11	0x3b059065	0.0020380255
12	0x3bb8a817	0.0056352722
13	0xbcf47302	-0.029839996
14	0xbcd00d67	-0.025397016
15	0x3b49f8d6	0.0030818484
16	0xbcea2032	-0.028579805
17	0xbcc7706b	-0.024345597
18	0xbd32d64a	-0.043661393
19	0xbd81c2bf	-0.06335973
20	0xbd83fd03	-0.064447425
21	0xbda4a990	-0.08040154
22	0xbdd37276	-0.10324566
23	0xbdae60c9	-0.08514554
24	0xbd5f29b6	-0.054483138
25	0xbd841ceb	-0.06450828
26	0xbd33b97a	-0.043878056
27	0x3af35e06	0.001856745
28	0xb9f48957	-0.00046641633
29	0xbb5e0aa3	-0.0033880852
30	0xb9a97a7f	-0.0003232546
31	0xbbac1fd6	-0.0052528186
32	0xbb85fd61	-0.004089043
33	0xb9c6e7ed	-0.000379383
34	0xbb8b1823	-0.0042448207
35	0xba9884d1	-0.0011636262
36	0x3c1e86d8	0.009675704
37	0x3b91f288	0.004453961
38	0x3b53e8ad	0.003233473
39	0x3b5799c0	0.0032898039
40	0xbac47ab3	-0.001499018
41	0xbaad64cc	-0.0013228892
42	0x3a9f4fc0	0.0012154505
43	0xbabe514b	-0.0014520077
44	0x39da1229	0.0004159373
45	0xbb0096a2	-0.0019621034
46	0x3a677589	0.0008829465
47	0xbb5c0240	-0.0033570677
48	0xba54508a	-0.00080991595
49	0xbba1f21b	-0.0049421913
50	0xbb317d44	-0.002708272
51	0xbacc441b	-0.0015584262
52	0xbbba6f68	-0.00568955
53	0xba382597	-0.00070246443
54	0x3a41694f	0.0007378058
55	0xbcf1591d	-0.029461438
56	0xbc7259f6	-0.014791956
57	0x3c658fb4	0.014011312
58	0xbddcb6bb	-0.107770406
59	0xbd79f957	-0.061028805
60	0xbb980ba6	-0.0046400605
61	0x3cad5a04	0.021161087
62	0xbc8b521b	-0.017006924
63	0xbce7dc3d	-0.02830326
64	0xbd8e474e	-0.06947194
65	0xbd286cc4	-0.041119352
66	0x3d758865	0.05994453
67	0x3ce9ff6f	0.028564183
68	0x3be7aa8b	0.007069891
69	0x3d90cb99	0.07070083
70	0x3d9c1077	0.07620328
71	0xbd8a0a6b	-0.06740268
72	0xbd2cc945	-0.042184133
73	0x3c7abd55	0.015303929
74	0xbd4d1bd8	-0.050075382
75	0xbc515d36	-0.012778571
76	0x3e2fc0ca	0.17163387
77	0x3db9e879	0.09077544
78	0xbd29bd83	-0.041440498
79	0x3cdf27db	0.027240684
80	0xbdb875fc	-0.09006879
81	0xbd4da3c8	-0.050205022
82	0xbcdeef9e	-0.027213868
83	0xbd069268	-0.032854468
84	0xba865027	-0.0010247276
85	0x3cef01e3	0.029175704
86	0x3cfd4a56	0.030919235
87	0xbcfc3e7f	-0.03079152
88	0x3c13adb8	0.009013586
89	0xbaaf83fe	-0.0013390777
90	0xbdb681bc	-0.089114636
91	0xbd8b7a07	-0.06810384
92	0xbd87c1c7	-0.06628757
93	0xbcd6a029	-0.026199417
94	0x3cef3109	0.029198186
95	0x3d01ebfb	0.03171919
96	0xbc4036b9	-0.011731797
97	0x3dab72c8	0.08371502
98	0x3d72d00e	0.059280448
99	0xbd98f205	-0.074680366
100	0xbd947c3c	-0.07250258
101	0xbdac3ee0	-0.0841043
102	0xbd145a04	-0.036218658
103	0x3c220211	0.009888188
104	0xbc1472d2	-0.009060578
105	0xbd875c8f	-0.06609451
106	0xba623a54	-0.00086299074
107	0xbd2193b4	-0.0394475
108	0xbcee8b6a	-0.029119212
109	0xbbaba61d	-0.005238308
110	0xbcf7d4f9	-0.03025292
111	0xbcf2d1e9	-0.029641109
112	0x3d1fd7b2	0.039024062
113	0x3d67d979	0.056603882
114	0xbd8374d1	-0.06418765
115	0xbbd6de7a	-0.006557283
116	0xbbba4599	-0.005684566
117	0x3c6af151	0.014339761
118	0x3ca5d0dd	0.020241195
119	0xbca353df	-0.019937454
120	0x3afab1d7	0.0019126487
121	0x3c93e87d	0.018055195
122	0x3c89ecbe	0.01683652
123	0x3bbe25d5	0.00580285
124	0x3d2825ed	0.041051794
125	0xbc13607b	-0.008995171
126	0xbde194cd	-0.110147096
127	0xbe0cb6e6	-0.13741645
128	0xbe1259c7	-0.1429206
129	0xbe127b40	-0.14304829
130	0xbe2cb8af	-0.16867326
131	0xbe23eaae	-0.16007492
132	0xbdae360d	-0.08506403
133	0xbdbcd08c	-0.09219465
134	0xbe0a818a	-0.13525978
135	0xbc40a2a8	-0.01175753
136	0xbc998641	-0.018740775
137	0xbc91a19e	-0.01777726
138	0xbbe14860	-0.006875083
139	0xbc70433a	-0.014664466
140	0xbc3eebd4	-0.0116529055
141	0x3ce060c4	0.027389891
142	0x3c98f50c	0.018671535
143	0x3c696963	0.014246318
144	0xbbddccaf	-0.006768785
145	0xbc369071	-0.011142836
146	0xbc396ff9	-0.0113182
147	0x3b8378bd	0.004012196
148	0xbc3ec48c	-0.01164354
149	0xbbebf1ad	-0.007200441
150	0x3d2daa8f	0.042398985
151	0x3d0178b5	0.031609256
152	0x3ceeed69	0.02916594
153	0xbc7bf33b	-0.015377815
154	0xbc2f7d7e	-0.010711072
155	0xbc868ad5	-0.016423622
156	0x3ba2fc81	0.0049739485
157	0xba03bea7	-0.0005025663
158	0xbbb0ac56	-0.005391638
159	0x3d011d49	0.03152207
160	0x3cbf9c36	0.023389917
161	0x3cc27d94	0.023741521
162	0xbd776d2c	-0.06040685
163	0xbd1a0049	-0.03759793
164	0xbd953c84	-0.07286933
165	0x3d312099	0.04324398
166	0xbc1c4e13	-0.009540099
167	0xbd0dc262	-0.034609206
168	0x3d35eea3	0.044417035
169	0x3bc3c573	0.0059744655
170	0xbd3e6cb1	-0.046490375
171	0xbd35a331	-0.044345085
172	0xbd80e7c0	-0.06294203
173	0xbe11a313	-0.14222364
174	0x3d911928	0.07084876
175	0xbd3fa89b	-0.046791654
176	0xbdc75711	-0.097334035
177	0x3d96f8fc	0.07371709
178	0xbc009014	-0.007846851
179	0xbd7d92ea	-0.061907686
180	0xbd42b39e	-0.047534578
181	0xba613c9c	-0.00085921003
182	0xbd8bc64e	-0.06824933
183	0x3d4f678a	0.050635852
184	0x3cda4024	0.026641913
185	0xbc91be18	-0.01779084
186	0xbbe7a46a	-0.00706916
187	0xbd3f562e	-0.046713047
188	0xbd8ab71b	-0.06773206
189	0x3b87c0ed	0.0041428716
190	0xb8e18208	-0.00010753056
191	0xbbd081d8	-0.006363135
192	0x3ba554f8	0.0050455295
193	0x3b87731b	0.0041335947
194	0x3b37e5e7	0.0028060616
195	0x3c44f74b	0.01202185
196	0x3c450c93	0.012026924
197	0x3b6ad3da	0.003583184
198	0x3c7665d9	0.015038931
199	0x3b38518c	0.0028124778
200	0x3b4816be	0.0030531134
201	0x3bf6bb4a	0.007529651
202	0x3a447020	0.00074935146
203	0x3b8a480d	0.004220015
204	0x3c644474	0.013932336
205	0x3c223a7a	0.009901637
206	0x3b90366b	0.0044010184
207	0x3cc25579	0.023722397
208	0x3c091125	0.008365904
209	0x3c083f10	0.0083158165
210	0x3c8d5555	0.017252604
211	0x3c3435e1	0.010999174
212	0x3c36233a	0.011116797
213	0x3c993093	0.01869992
214	0x3c7df7bf	0.015500962
215	0x3c1d40be	0.009597955
216	0x39ae7ae0	0.00033279415
217	0xbbade0b5	-0.005306328
218	0xbb9d88d2	-0.00480757
219	0xbb5a7361	-0.0033332931
220	0xbb838231	-0.0040133228
221	0xbbcc9c6e	-0.006244234
222	0xbb7ff064	-0.0039053196
223	0xbb1b1f3e	-0.0023669745
224	0x3ab62e9d	0.001389939
225	0x3baafb2d	0.005217931
226	0x3b71e6c3	0.0036911226
227	0xbb262bf2	-0.0025355783
228	0x3b80f1d2	0.003935077
229	0x3c2ec42e	0.01066689
230	0xba53bbfb	-0.00080770225
231	0x3b0e55e2	0.002171867
232	0x3c36faa2	0.011168154
233	0x3b944775	0.00452512
234	0xbb226be7	-0.0024783553
235	0xb9fa22c2	-0.00047709612
236	0xbaa48003	-0.0012550357
237	0xbc488004	-0.012237553
238	0xbc0e5c57	-0.008689008
239	0xbc3ee428	-0.011651076
240	0xbc069607	-0.00821448
241	0xbbc30a37	-0.0059521454
242	0xbb958dd2	-0.0045640254
243	0xba735d3b	-0.0009283607
244	0x3b144f95	0.0022630442
245	0xbb02276c	-0.0019859923
246	0xbac4ca0c	-0.0015013828
247	0x3c1e5949	0.009664842
248	0x3b26ea5e	0.0025469284
249	0xbbe95d5e	-0.007121726
250	0x3b17ebab	0.002318124
251	0xbb65476e	-0.0034985202
252	0x3bbb1d67	0.005710292
253	0x3c4a840f	0.012360587
254	0x3bbfcdd4	0.005853394
255	0x3c26fbfe	0.010191916

bias f4 [32]
0	0x38c25136	9.2657676e-05
1	0x378730f3	1.6116048e-05
2	0x36fb7b1a	7.494714e-06
3	0xb5945fd8	-1.1054753e-06
4	0x360aeb9a	2.070074e-06
5	0x370261a2	7.771336e-06
6	0x365bbcbf	3.2743408e-06
7	0x36869b06	4.0115583e-06
8	0xb79257c1	-1.744542e-05
9	0xb7389e1a	-1.10040655e-05
10	0xb6b14091	-5.2825276e-06
11	0xb7b4bd23	-2.1545746e-05
12	0x38052014	3.1739546e-05
13	0x35f1b3ba	1.8008207e-06
14	0xb677eccf	-3.694371e-06
15	0xb59a9f36	-1.1520231e-06
16	0x363902d1	2.7568788e-06
17	0xb6ae7db9	-5.20024e-06
18	0xb796fea1	-1.7999964e-05
19	0xb59fa9d4	-1.189585e-06
20	0xb7e74758	-2.7570568e-05
21	0x3853e08c	5.0515446e-05
22	0xb796e3a0	-1.798739e-05
23	0x3839aa50	4.4266053e-05
24	0x3712b684	8.744773e-06
25	0x3700727a	7.656048e-06
26	0x35984e37	1.1347646e-06
27	0xb77904f6	-1.4842712e-05
28	0x35d64bb8	1.596628e-06
29	0xb70e7ac1	-8.49244e-06
30	0xb70c6462	-8.3680225e-06
31	0xb7937ebc	-1.758278e-05

weight f4 [32]
0	0x3f14946f	0.5803899
1	0x3e496768	0.19668353
2	0x3ebff22c	0.3748945
3	0x3f006257	0.50150055
4	0x3e8acd6f	0.27109858
5	0x3e046cc7	0.1293212
6	0x3e749e85	0.23888595
7	0x3e5fee8c	0.21868342
8	0x3e9808a2	0.29694086
9	0x3e3aa908	0.18228543
10	0x3e66b59d	0.22530217
11	0x3eb710a5	0.35754886
12	0x3ec67685	0.38762298
13	0x3e703c83	0.23460583
14	0x3eb22969	0.34797218
15	0x3e350971	0.17679383
16	0x3ea7bc40	0.3276081
17	0x3e9b8b22	0.30379587
18	0x3f00996d	0.5023411
19	0x3eace9db	0.33772168
20	0x3f016e22	0.50558674
21	0x3f19e648	0.60117006
22	0x3e4a67a9	0.19766106
23	0x3e9e015f	0.3086042
24	0x3ee50b7c	0.44735324
25	0x3ecfe7f2	0.40606648
26	0x3eba8022	0.36425883
27	0x3e964dd2	0.29356247
28	0x3e82c346	0.25539607
29	0x3ef289a8	0.47370648
30	0x3ec911e1	0.39271453
31	0x3ed10b35	0.40828863

bias f4 [32]
0	0x3c187893	0.009306091
1	0xbe74d52b	-0.23909442
2	0xbe2eb6f0	-0.17061973
3	0x3d69bb28	0.05706325
4	0xbeb3fe2f	-0.35154864
5	0x3dc875c2	0.097880855
6	0xbdea8a38	-0.114521444
7	0x3bd7164b	0.006563937
8	0xbe887c70	-0.26657438
9	0xbe92d7d3	-0.28680286
10	0x3e761977	0.24033152
11	0xbde77155	-0.11300913
12	0x3cad03ab	0.021119913
13	0xbd7bb116	-0.06144818
14	0x3cfdce2e	0.030982103
15	0x3d82b269	0.06381685
16	0xbeeb9ce6	-0.46018142
17	0x3e201f26	0.15636882
18	0x3d4f5842	0.05062128
19	0xbec62da8	-0.38706708
20	0xbb1c7b92	-0.0023877365
21	0x3e2dbb52	0.16965988
22	0x3ddee8e2	0.108842626
23	0x3df2bd99	0.11852569
24	0xbe04c5d6	-0.12966093
25	0x3db38bad	0.087668754
26	0xbe4e8d04	-0.2017098
27	0xbcfdeab2	-0.0309957
28	0xbe9c201b	-0.30493245
29	0xbe2be2b7	-0.16785704
30	0xbdde2856	-0.10847537
31	0xbdc4388f	-0.095811

weight f4 [64, 32, 3, 3, 3]
0	0x3be61a42	0.007022173
1	0x3b662136	0.003511501
2	0xbb112787	-0.0022148804
3	0x3c59786e	0.013273342
4	0x3c83df21	0.016097607
5	0x3c203490	0.009778157
6	0x3c4484f4	0.011994589
7	0x3c03bc12	0.008040445
8	0x3a8d59ac	0.0010784171
9	0xba794a71	-0.0009509689
10	0xbb2ef349	-0.0026695302
11	0x3b069496	0.0020535341
12	0x3c562a9b	0.013071681
13	0x3b8fcf9a	0.0043887617
14	0x3c0dfcdc	0.008666243
15	0x3cb8c247	0.022553576
16	0x3c06e1f6	0.008232584
17	0x3ba7d801	0.005122185
18	0xbbb66c89	-0.0055671376
19	0xbc1594bf	-0.009129702
20	0xbc2cf47f	-0.010556339
21	0x3c43b8d5	0.011945923
22	0x3c1ba735	0.0095003145
23	0xbaa936fd	-0.0012910065
24	0x3af6e62d	0.0018836908
25	0xbbf388c5	-0.0074320757
26	0xbc7a7d85	-0.015288715
27	0x3c14e95e	0.009088842
28	0x3c0afe61	0.0084835
29	0x3bf8399c	0.007575227
30	0x3c3577b1	0.0110759
31	0x3c3c6090	0.011497632
32	0x3c6c75bb	0.014432366
33	0x3ca3fa5b	0.02001684
34	0x3c8a8496	0.016908925
35	0x3c8a9dcb	0.016920945
36	0x3c4fa1a7	0.012672818
37	0x3c74b74c	0.0149362795
38	0x3c4b169b	0.012395526
39	0x3c919240	0.017769933
40	0x3c8d8628	0.017275885
41	0x3ca7185a	0.020397354
42	0x3cb6b448	0.022302762
43	0x3cabd2d1	0.020974549
44	0x3cb6aedb	0.022300174
45	0x3c842683	0.016131645
46	0x3c92e321	0.01793057
47	0x3c5515ce	0.013005687
48	0x3c958d46	0.018255841
49	0x3c847abe	0.01617181
50	0x3c88ea99	0.016713427
51	0x3ce16a11	0.027516397
52	0x3cba8c3f	0.022771953
53	0x3ca38aef	0.01996371
54	0x3c654143	0.01399261
55	0x3bf8107c	0.0075703245
56	0x3baacb07	0.005212191
57	0x3c658cb6	0.014010599
58	0x3b7aac1f	0.0038249565
59	0x3ae401b0	0.0017395522
60	0x3c99bd16	0.018766921
61	0x3c64c2e4	0.013962481
62	0x3c225e19	0.00991013
63	0x3a18efa6	0.000583405
64	0xbb014ef2	-0.0019730893
65	0xbbe513a4	-0.0069908667
66	0x3bdaf37d	0.006681858
67	0x3a0a19f3	0.0005268149
68	0xbb1da3a1	-0.002405383
69	0x3cac31f4	0.021019913
70	0x3c7d436c	0.015457969
71	0x3c2f8a7a	0.010714168
72	0x3ca63183	0.02028728
73	0x3cd4a3ff	0.025957106
74	0x3cca219a	0.024674226
75	0x3ce45662	0.027873222
76	0x3ce21fc8	0.027603045
77	0x3d0e9552	0.03481037
78	0x3d109705	0.035300273
79	0x3d12f6f4	0.035880044
80	0x3d28715e	0.04112374
81	0x3acf65a5	0.0015823139
82	0x3c5cca67	0.013475991
83	0xbba806dc	-0.005127771
84	0x3b02ab06	0.0019938364
85	0x3b9534a7	0.004553396
86	0x3b790d2d	0.0038002238
87	0x3b0895d4	0.0020841258
88	0xbc1df7bf	-0.009641587
89	0xbcb4536d	-0.022012437
90	0xbc03d75f	-0.008046954
91	0x3ba32ea1	0.004979924
92	0xbc0ea743	-0.0087068705
93	0x3c46c328	0.01213149
94	0x3d22441b	0.03961573
95	0x3d15da34	0.036585048
96	0xbb1fa817	-0.0024361664
97	0x3bc02218	0.0058634393
98	0xbc073235	-0.008251716
99	0xbb665efc	-0.003515183
100	0xbc097460	-0.008389562
101	0xbc154b05	-0.009112124
102	0xba4ea978	-0.0007883529
103	0x3c9613a8	0.01831992
104	0x3ca4d768	0.020122245
105	0xbbac181f	-0.005251899
106	0x38569d2e	5.116796e-05
107	0xbbcd1bd1	-0.0062594195
108	0x3d0fd93d	0.035119284
109	0x3c91ebcb	0.01781263
110	0x3b5518a2	0.0032515903
111	0x3cd4d03f	0.025978206
112	0x3c2b4f01	0.010455848
113	0x3b97d2aa	0.0046332674
114	0x3c73fe61	0.014892192
115	0x3b3e923b	0.002907886
116	0x3bbfcfa1	0.0058536087
117	0xbc109da3	-0.008826646
118	0xbc8fe511	-0.017565282
119	0xbcfbb3bf	-0.030725358
120	0xbbd88cf4	-0.0066086
121	0xbc0aef9d	-0.00847998
122	0xbc8137d5	-0.015773693
123	0xbc708b0e	-0.014681591
124	0xbc94b514	-0.018152751
125	0xbc961ba3	-0.018323725
126	0x3a3fd96d	0.0007318471
127	0xbc2cc3e7	-0.010544754
128	0xbcbd45c0	-0.023104548
129	0x3b6a3e61	0.0035742747
130	0x3b197870	0.0023417734
131	0xbc4aba19	-0.012373471
132	0xbb9f83ed	-0.0048680217
133	0xbc3004e7	-0.010743356
134	0xbc86f722	-0.016475264
135	0xbcb39615	-0.02192215
136	0xbc8a2af1	-0.01686618
137	0xbc8ec621	-0.01742846
138	0xbcae3076	-0.021263342
139	0xbc88259b	-0.016619494
140	0xbc7f64a2	-0.015587958
141	0xbc87fc8d	-0.016599918
142	0xbc73743f	-0.014859258
143	0xbc825233	-0.015908336
144	0xbca98e15	-0.020697633
145	0xbc79b3b0	-0.015240595
146	0xbc830dfe	-0.015997883
147	0xbca3ae83	-0.019980675
148	0xbc5efba5	-0.013609801
149	0xbc7114a8	-0.0147143975
150	0xbc88b134	-0.01668606
151	0xbc711c4c	-0.014716219
152	0xbc8cbfb7	-0.01718126
153	0xbc833435	-0.016016105
154	0xbc5b49fc	-0.0133843385
155	0xbc437f49	-0.011932203
156	0xbc918711	-0.0177646
157	0xbc34caa4	-0.011034641
158	0xbc0ce71d	-0.008600024
159	0xbc8cfeb0	-0.017211288
160	0xbc62e57d	-0.01384866
161	0xbc3e0752	-0.011598425
162	0xbc91a8e2	-0.017780725
163	0xbc9dc766	-0.01926012
164	0xbcd5b3f1	-0.02608678
165	0xbc90eb7a	-0.017690409
166	0xbc7d6100	-0.015465021
167	0xbcb2912d	-0.02179774
168	0xbc8fb15c	-0.017540626
169	0xbca565ce	-0.020190146
170	0xbcc20e22	-0.02368838
171	0xbcb32df0	-0.02187249
172	0xbcb13872	-0.02163336
173	0xbcfcbc70	-0.030851573
174	0xbcaf9350	-0.021432549
175	0xbca9c888	-0.020725504
176	0xbccdcf53	-0.025123274
177	0xbcc9056c	-0.024538718
178	0xbcafe86e	-0.021473136
179	0xbcf6f865	-0.03014774
180	0xbaeaa2b6	-0.0017901275
181	0xbba26f71	-0.0049571325
182	0xbc20d647	-0.009816713
183	0xbbcd5cce	-0.0062671667
184	0xbb447a6f	-0.0029980203
185	0xbbd5090d	-0.006501323
186	0xbbf66bf4	-0.0075201932
187	0xbbe46f70	-0.006971292
188	0xbc113400	-0.008862495
189	0xbcedd4a0	-0.029032052
190	0xbce5ea3e	-0.028065797
191	0xbc83ec8f	-0.01610401
192	0xbc9f35a5	-0.01943476
193	0xbc8fa31a	-0.017533828
194	0xbbfeeccb	-0.0077796928
195	0xbc88618e	-0.01664808
196	0xbc9ab7df	-0.018886505
197	0xbc3eabe4	-0.011637662
198	0xbd0363c4	-0.032077566
199	0xbce8bc6d	-0.02841016
200	0xbc921dd4	-0.017836489
201	0xbc8c8ecb	-0.017157933
202	0xbc6ac27c	-0.014328595
203	0xbbc8bff1	-0.006126397
204	0xbc46a29a	-0.012123728
205	0xbc425632	-0.011861371
206	0xbc17bf19	-0.00926187
207	0xbcb54130	-0.02212581
208	0xbc928736	-0.01788674
209	0xbc63bc94	-0.013899941
210	0xbac78ef0	-0.0015225094
211	0x36de798b	6.630265e-06
212	0x3bca1bd2	0.006167867
213	0x3bd17e3f	0.0063932235
214	0x3b8a01f4	0.0042116586
215	0x3bcfaf07	0.0063380036
216	0x3b249640	0.002511397
217	0x3bd85823	0.0066023036
218	0x3bca3579	0.006170925
219	0x391b1d2f	0.00014792824
220	0x3ba673a3	0.005079703
221	0x3c070ffa	0.008243555
222	0xbba676ec	-0.0050800946
223	0xba067b4e	-0.0005130068
224	0x3a9531e0	0.0011382662
225	0xbb32ee88	-0.002730282
226	0x3b6ec801	0.003643513
227	0x3a1119eb	0.0005535173
228	0xbc139d09	-0.009009608
229	0x3b433a4c	0.0029789386
230	0x3ba146a4	0.004921751
231	0xbc5166a8	-0.012780823
232	0xbba0a2b9	-0.0049022106
233	0xbb9fd6b0	-0.0048778877
234	0x3a8a1547	0.0010534906
235	0x3c491075	0.01227199
236	0x3b1669bf	0.0022951213
237	0xbc0c2678	-0.008554094
238	0x3bf985bd	0.00761482
239	0x3b9719bb	0.0046112216
240	0xbc5997d6	-0.013280829
241	0xbb4771fe	-0.0030432935
242	0xbba57bdc	-0.0050501656
243	0x3aaf88b5	0.0013392182
244	0x3b3ea767	0.0029091479
245	0x3bed3d1b	0.0072399504
246	0x3b58d4d5	0.0033085842
247	0x3b99ed85	0.004697504
248	0x3c322ddd	0.0108751925
249	0x3bbd1b59	0.0057710824
250	0x3bb3d549	0.005488072
251	0x3c3d044d	0.01153667
252	0x3b711034	0.003678334
253	0x3bcc8aec	0.0062421467
254	0x3c38ce63	0.011279675
255	0x3b8c1e00	0.004276037

bias f4 [64]
0	0xb5dba591	-1.6364958e-06
1	0xb779b504	-1.48837025e-05
2	0x3580b3d5	9.589081e-07
3	0xb4e809e7	-4.3220572e-07
4	0xb57479f8	-9.107457e-07
5	0xb712cb4e	-8.749614e-06
6	0x3689a5a3	4.102201e-06
7	0x370a1da9	8.232347e-06
8	0xb75c29ca	-1.3122752e-05
9	0x3680af40	3.835099e-06
10	0x36fc6ba6	7.522717e-06
11	0x37115ef3	8.664781e-06
12	0xb684521b	-3.943465e-06
13	0x352ba123	6.393695e-07
14	0x36d4df54	6.344091e-06
15	0xb633295f	-2.669716e-06
16	0xb6a6bfeb	-4.9695277e-06
17	0xb5b65be5	-1.3586802e-06
18	0x364234bb	2.8938946e-06
19	0xb7eed8bd	-2.8472738e-05
20	0xb541b4e4	-7.2161333e-07
21	0xb742f8f3	-1.1621264e-05
22	0x378f8400	1.7108396e-05
23	0xb64ed590	-3.0820702e-06
24	0x342d87c2	1.6161269e-07
25	0x35d9f31b	1.6238513e-06
26	0x36b071f1	5.2584733e-06
27	0xb64b952c	-3.0336187e-06
28	0x35bf57eb	1.4256196e-06
29	0x371ea5a1	9.456097e-06
30	0x373b6040	1.11684785e-05
31	0x35c1cb05	1.4438707e-06
32	0x3789e8a6	1.6440008e-05
33	0xb616d3a6	-2.2474937e-06
34	0xb60370cb	-1.9586175e-06
35	0xb6abdfd3	-5.1222537e-06
36	0x354876e1	7.46788e-07
37	0xb63c8068	-2.8088925e-06
38	0x36550af5	3.1745851e-06
39	0xb6aafdad	-5.0959266e-06
40	0x35464a51	7.386889e-07
41	0xb7736c2e	-1.4509116e-05
42	0xb5fa26d4	-1.8637752e-06
43	0xb4f15b53	-4.4956195e-07
44	0x37294b06	1.0090653e-05
45	0x369bc0d0	4.6418063e-06
46	0x3687a4ca	4.0424975e-06
47	0x36de04db	6.616681e-06
48	0x36fd5a47	7.5504972e-06
49	0xb7403bb8	-1.1457996e-05
50	0xb66d202c	-3.5334479e-06
51	0x34fe8889	4.741053e-07
52	0xb6da8ae2	-6.5130744e-06
53	0x3633c58c	2.6788066e-06
54	0xb73adaea	-1.1137434e-05
55	0xb6bfcf72	-5.7163934e-06
56	0x368bf6e4	4.1712647e-06
57	0xb73de4f7	-1.1318588e-05
58	0xb70b2236	-8.293011e-06
59	0x3594eec7	1.1096353e-06
60	0xb69a73df	-4.603047e-06
61	0x3704a8cb	7.907113e-06
62	0x3567f04a	8.640387e-07
63	0x36ee4b0e	7.1016902e-06

weight f4 [64]
0	0x3ee3be3e	0.4448108
1	0x3e70c897	0.23514019
2	0x3e22ee20	0.1591115
3	0x3e2f9fdf	0.1715083
4	0x3ea1c17f	0.31592938
5	0x3e862076	0.2619664
6	0x3e9024b8	0.28153014
7	0x3ea53f6b	0.32274947
8	0x3e8ceec4	0.27525914
9	0x3ed2e94a	0.4119361
10	0x3e67e8b3	0.22647361
11	0x3eb1ac4e	0.3470177
12	0x3ea74499	0.32669523
13	0x3e89f100	0.2694168
14	0x3e8d4c89	0.27597454
15	0x3de2ce9f	0.11074566
16	0x3e8f0361	0.27932265
17	0x3ea9fabc	0.33199108
18	0x3e8140db	0.25244793
19	0x3eb0e2e4	0.34548104
20	0x3e622738	0.22085273
21	0x3e93bbde	0.2885427
22	0x3e9541b6	0.29151696
23	0x3e4c5ab1	0.19956471
24	0x3eb4fc79	0.3534887
25	0x3ea8e62b	0.32988104
26	0x3e6598c8	0.22421563
27	0x3e94902d	0.29016247
28	0x3e14dbd2	0.1453698
29	0x3e42be6d	0.19017954
30	0x3ebec870	0.37262297
31	0x3e2bcd80	0.16777611
32	0x3ebf208e	0.37329525
33	0x3e8199c0	0.25312614
34	0x3dee5a90	0.11638367
35	0x3e7384ad	0.2378108
36	0x3e2163c7	0.15760718
37	0x3e0c8b44	0.13725
38	0x3e5b569a	0.21419755
39	0x3dff5a1d	0.124683596
40	0x3ec82e4f	0.3909783
41	0x3e4f85fa	0.20265952
42	0x3e0fb603	0.14034276
43	0x3ec0653c	0.37577236
44	0x3e88740d	0.2665104
45	0x3e1d8483	0.1538258
46	0x3e5397ea	0.2066342
47	0x3ec8dd31	0.39231256
48	0x3e659abd	0.22422309
49	0x3eb00aee	0.3438334
50	0x3e5aaf9e	0.21356055
51	0x3ea7f726	0.32805747
52	0x3e4f2aa6	0.20231113
53	0x3e6a3a7b	0.22873871
54	0x3ea6ab94	0.3255278
55	0x3ebdc7d3	0.37066516
56	0x3ea05ee7	0.31322405
57	0x3ed91868	0.42401433
58	0x3eb18bc4	0.34676945
59	0x3e795faa	0.24352899
60	0x3eb459a8	0.35224652
61	0x3e54cffc	0.20782465
62	0x3ebc93d9	0.3683155
63	0x3eb9c987	0.36286566

bias f4 [64]
0	0xbee845e2	-0.45365816
1	0xbd5d9f59	-0.054107044
2	0xbe04bfa7	-0.12963735
3	0xbcd0d185	-0.025490532
4	0xbdc1ee2e	-0.09469257
5	0xbe0902ed	-0.13380022
6	0xbc13307c	-0.008983728
7	0xbe0f4fc2	-0.13995269
8	0x3e03739c	0.1283707
9	0xbea66b73	-0.32503852
10	0xbd152b05	-0.03641798
11	0xbe64cc4f	-0.22343563
12	0xbd44c2ec	-0.048037454
13	0xbd2b6727	-0.04184642
14	0x3e2bc0b9	0.16772737
15	0xbc478abd	-0.012179074
16	0xbe03b182	-0.12860683
17	0xbd1c1a3b	-0.038110953
18	0xbe9aead3	-0.30257282
19	0xbdae634d	-0.08515034
20	0xbe04c19e	-0.12964484
21	0xbd8c60de	-0.068544134
22	0xbb50a123	-0.0031834326
23	0xbc64b5c9	-0.013959357
24	0xbd9b2ec5	-0.0757728
25	0xbd834690	-0.06409943
26	0xbe27e45e	-0.16395709
27	0x3e1a609d	0.15075918
28	0xbcde69b9	-0.027150022
29	0x3c048d40	0.008090317
30	0xbe14bcdf	-0.14525174
31	0xbc7cadfd	-0.015422341
32	0xbdb7527f	-0.08951282
33	0xbd88b194	-0.06674495
34	0xba9a81c7	-0.0011787944
35	0xbdc53d56	-0.096308395
36	0x3d630b63	0.05543078
37	0xbd385a7f	-0.04500818
38	0xbe9846e8	-0.29741597
39	0xbc5568b6	-0.013025453
40	0xbe2ce8d4	-0.16885692
41	0xbd053fe7	-0.032531645
42	0x3e7b20a0	0.24524164
43	0xbec712e7	-0.3888161
44	0xbdbd4fb3	-0.09243717
45	0xbd7ba056	-0.061432205
46	0xbd623407	-0.0552254
47	0xbe0d612e	-0.13806602
48	0xbd4b465b	-0.049627643
49	0xbe13e921	-0.144444
50	0xbc4ae390	-0.012383357
51	0xbe6ebd65	-0.23314436
52	0xba0d2cca	-0.0005385397
53	0xbeb66bf4	-0.35629237
54	0xbda45500	-0.08024025
55	0xbdcadf11	-0.09905828
56	0xbd2a3a3a	-0.041559435
57	0xbe311470	-0.17292953
58	0xbda7ed75	-0.08199588
59	0xbe341004	-0.17584234
60	0xbe832296	-0.25612324
61	0xbdf2f2e8	-0.11862737
62	0xbe4d838d	-0.20069714
63	0xbd9abb9d	-0.07555316

weight f4 [64, 64, 3, 3, 3]
0	0x3cc00696	0.02344064
1	0x3cf529cd	0.029927159
2	0x3cb9b2dc	0.022668295
3	0x3c9953d2	0.018716726
4	0x3cb2e84e	0.021839287
5	0x3ca2f859	0.019893812
6	0xbbdbf6ea	-0.006712784
7	0xbcbdb4b0	-0.023157448
8	0xbbf35aa2	-0.0074265758
9	0x3c40e7f1	0.011774049
10	0x3cf6bf71	0.030120583
11	0x3ce2fe33	0.027709102
12	0x3c878521	0.016542973
13	0x3d545e48	0.051847726
14	0x3d2d008f	0.04223686
15	0xbc127fea	-0.00894163
16	0xbc29a2a4	-0.010353718
17	0x3c17d2c8	0.009266563
18	0x3cba265f	0.022723375
19	0x3d1b3710	0.03789431
20	0x3d141353	0.03615124
21	0x3cbbe5f2	0.022936795
22	0x3d430fa1	0.047622327
23	0x3d42f07f	0.047592636
24	0xb866056f	-5.4841334e-05
25	0x3c0c97ff	0.008581161
26	0x3cd01dd1	0.025404843
27	0xbc42bc3f	-0.011885702
28	0xbb4f2266	-0.0031606196
29	0xbc7f638e	-0.0155877005
30	0xbcbf6507	-0.023363603
31	0xbc599dfe	-0.013282297
32	0xbc842248	-0.016129628
33	0xbcbcac96	-0.023031514
34	0xbc8f0a6f	-0.01746103
35	0xbc556b7e	-0.013026116
36	0xbb1c4cee	-0.0023849565
37	0x3c20b9fa	0.009809965
38	0xbc0d6308	-0.008629568
39	0xbba07ef4	-0.0048979465
40	0x3c2d2e8f	0.010570182
41	0xbc326f77	-0.010890833
42	0xbc1f30a9	-0.009716191
43	0x3be4d65f	0.006983563
44	0xbc005f8b	-0.007835279
45	0xbbfce2b0	-0.007717453
46	0x3c3ae3b6	0.01140683
47	0xbbcf02a4	-0.0063174535
48	0x3a936f18	0.0011248318
49	0x3cdf17da	0.027233053
50	0x3b8f6a9a	0.0043767216
51	0xbb295ce9	-0.0025842732
52	0x3c84d184	0.016213186
53	0x3b31926f	0.0027095338
54	0x3bc74381	0.006081045
55	0x3b6c8162	0.003608786
56	0x3bbf912b	0.005846163
57	0x3c2ff486	0.010739451
58	0x3b9cc9fc	0.0047848206
59	0x3b64780c	0.0034861593
60	0x3bdd70db	0.006757838
61	0x3a4b3b3a	0.0007752661
62	0xbbe34629	-0.006935854
63	0x3c4a80eb	0.012359838
64	0x3bcd22e0	0.006260261
65	0x3bd3185a	0.006442112
66	0x3c558253	0.01303156
67	0x3c2df128	0.010616578
68	0x3c189b77	0.009314409
69	0x3bf2461d	0.007393612
70	0x3c111bc7	0.00885672
71	0x38f824c7	0.00011832412
72	0x3c597872	0.013273345
73	0x3c004cff	0.007830857
74	0x3ba410d4	0.005006889
75	0x3c31e1f0	0.01085709
76	0x3c34de95	0.011039396
77	0x3bf3eda6	0.0074441014
78	0x3bc69f90	0.006061502
79	0x3c079330	0.008274838
80	0x399d4f40	0.0003000442
81	0x3b8b3f7e	0.004249512
82	0x3bd0f26f	0.0063765566
83	0xbb1b7e60	-0.0023726448
84	0x3926a8c7	0.00015893868
85	0x3c9ea74a	0.019366879
86	0x3bea208f	0.0071449946
87	0xbc823671	-0.0158951
88	0x3bcc581a	0.0062360885
89	0xba2451c0	-0.0006268285
90	0x3c288c78	0.010287397
91	0x3c85369b	0.01626139
92	0x3a276053	0.0006384898
93	0xbbe6ec1e	-0.0070471903
94	0x3cc457c3	0.02396763
95	0x3cae7990	0.0212982
96	0xbcb16ee9	-0.021659331
97	0xbbbf4522	-0.0058370987
98	0x3b8d20c3	0.004306884
99	0x3c8925f5	0.016741732
100	0x3be0d74c	0.006861603
101	0xbb9a15b3	-0.004702294
102	0xbb8007aa	-0.0039071636
103	0xbb17fdc7	-0.0023192035
104	0x3accb873	0.0015618935
105	0xbc9748bd	-0.018467302
106	0xbc79daad	-0.01524989
107	0xbc24e742	-0.010064902
108	0xbc6a5b58	-0.014304005
109	0x3b2c19f2	0.0026260582
110	0xbb8f2c0b	-0.004369264
111	0x3b795e6a	0.003805066
112	0xbb0ab93f	-0.0021167544
113	0x3c301cb1	0.010749028
114	0xbbb31863	-0.0054655536
115	0xbb8a966a	-0.0042293565
116	0xbb8db5f9	-0.0043246713
117	0xbc579a35	-0.013159324
118	0x3c45bd13	0.012069005
119	0xbb7a7dae	-0.0038221884
120	0x3c09d87b	0.008413429
121	0xbb40411d	-0.0029335686
122	0xba237db6	-0.0006236689
123	0xbb9f4f96	-0.0048617823
124	0x3b513a91	0.0031925777
125	0xbbc0c760	-0.0058831424
126	0xbc9d9e51	-0.01924053
127	0xbbb66b37	-0.00556698
128	0xbc652a0f	-0.013987078
129	0x3c304025	0.010757481
130	0x3b87470b	0.004128342
131	0xbb06304d	-0.0020475567
132	0xbc4044aa	-0.011735121
133	0xbc51d079	-0.012806051
134	0xbcb13309	-0.02163078
135	0x3c542477	0.012948147
136	0x3cdb5032	0.026771639
137	0x3bf946e7	0.007607329
138	0x3caf4d7d	0.021399254
139	0x3cddea9d	0.027089411
140	0x3c9dee7f	0.019278763
141	0x3aa0386c	0.0012223846
142	0x3b1a47f7	0.002354143
143	0x3ba5d436	0.005060698
144	0x3ba0ae54	0.004903594
145	0x3d012ca7	0.031536724
146	0x3c46fbc3	0.012144986
147	0x3cbc0147	0.022949828
148	0x3d289d34	0.041165546
149	0x3d19ab10	0.037516654
150	0x3c06d034	0.00822835
151	0x3ca61a0e	0.020276096
152	0x3c39b2a3	0.011334094
153	0xba8b2bf5	-0.0010617959
154	0x3c512c7f	0.012766956
155	0x3b6c436b	0.0036050926
156	0x3c4a21cc	0.012337159
157	0x3cb72580	0.022356749
158	0x3c836618	0.016039893
159	0x392030ef	0.00015277018
160	0x3bbb2036	0.005710627
161	0xbbda9a35	-0.006671215
162	0x39b36079	0.00034213418
163	0xbc3e3199	-0.011608505
164	0xbc445a10	-0.011984363
165	0xbc0e6fa7	-0.008693612
166	0xbc2e3736	-0.0106332805
167	0xbc23d87c	-0.010000344
168	0xbbdd0117	-0.0067445147
169	0xbb335439	-0.0027363433
170	0xbae77e47	-0.0017661535
171	0xbbab984f	-0.0052366625
172	0xbc59aa12	-0.013285177
173	0xbc43b867	-0.01194582
174	0xbc6cf648	-0.014463015
175	0xbc0dcf8a	-0.008655438
176	0xbb3e8d44	-0.00290759
177	0xbac6a786	-0.0015156127
178	0xbbfcc258	-0.0077135973
179	0xbb753b80	-0.0037419498
180	0xbc5680a8	-0.0130921975
181	0xbbc1c1f8	-0.0059130155
182	0xbc3417ff	-0.010992049
183	0xbc5f56c0	-0.013631523
184	0x3b74e4ab	0.0037367742
185	0xbb3ddbb4	-0.0028970065
186	0xbb8052b5	-0.0039161094
187	0x39452686	0.00018801735
188	0x3b951e98	0.004550766
189	0x3c30ebbc	0.010798391
190	0x3be80db8	0.0070817135
191	0x3bd69d9e	0.006549551
192	0xbb0eecd4	-0.002180864
193	0xbb7dc869	-0.003872419
194	0x3ae070b1	0.0017123428
195	0xbb9b28eb	-0.0047351024
196	0xbcae81d2	-0.021302138
197	0xbc2e45e5	-0.010636781
198	0x3c12fa7c	0.008970853
199	0xbb90ed24	-0.0044228006
200	0xbb6a2823	-0.003572949
201	0xbb9e345c	-0.004828019
202	0x3b3466a7	0.0027527006
203	0x3b519379	0.003197877
204	0xbb85cdf0	-0.0040833876
205	0xbc4b09fa	-0.012392515
206	0xbb5576be	-0.0032571997
207	0x3bec0890	0.007203169
208	0xbb78627f	-0.0037900505
209	0xbb980d45	-0.0046402537
210	0x3ac57a12	0.0015066287
211	0x3b63b825	0.003474721
212	0x3b45e255	0.003019472
213	0x3b400a7d	0.0029303127
214	0xbb20b166	-0.00245198
215	0xb786d669	-1.6073887e-05
216	0x3c975642	0.018473748
217	0x3ce79c95	0.028272906
218	0x3c43450c	0.0119183175
219	0x3c02f860	0.0079937875
220	0x3cd10fd7	0.025520248
221	0x3c9f059c	0.019411854
222	0x3bc5cfa8	0.0060367174
223	0x3b849d2d	0.004047057
224	0x3c139146	0.009006804
225	0xbb7a9caa	-0.0038240352
226	0x3ca291f9	0.019844996
227	0x3b8b9d6d	0.00426071
228	0xbc867e82	-0.016417746
229	0x3c3082b1	0.010773347
230	0x3c1f52a0	0.009724289
231	0xbc9476c1	-0.018123033
232	0xbcb73e87	-0.022368683
233	0xbc4551b2	-0.012043403
234	0x3b2e4355	0.0026590426
235	0x3ce11b92	0.027478967
236	0x3bf74e2c	0.0075471606
237	0xbc9f5966	-0.019451808
238	0x3b26633c	0.0025388738
239	0x3b331d10	0.0027330555
240	0xbd316546	-0.043309473
241	0xbd25c782	-0.04047347
242	0xbca72320	-0.020402491
243	0xbbf97a43	-0.0076134517
244	0xbc348c2a	-0.011019746
245	0xbca85eed	-0.020553077
246	0xbb30a644	-0.002695457
247	0xbbc5f9f9	-0.006041762
248	0xbc46389e	-0.0120984595
249	0x3b1a3f9c	0.002353645
250	0x3c0f4cff	0.008746385
251	0xbbd0111f	-0.0063496972
252	0xbb1b9fc1	-0.0023746344
253	0xbc847dc6	-0.016173255
254	0xbcda8485	-0.026674518
255	0x3c2acac7	0.010424322

bias f4 [64]
0	0x35ccd37d	1.5260736e-06
1	0x3719236d	9.127759e-06
2	0xb6e6a24f	-6.8734294e-06
3	0x36cccd76	6.1035926e-06
4	0x37e7326a	2.7560822e-05
5	0xb7056b90	-7.952462e-06
6	0x352acbc2	6.362644e-07
7	0xb4ac2392	-3.2063377e-07
8	0x362c810f	2.570512e-06
9	0x37a64ada	1.9823598e-05
10	0xb51938bd	-5.7079507e-07
11	0x372bd196	1.0241192e-05
12	0xb3817375	-6.028032e-08
13	0x35b8041b	1.3710263e-06
14	0xb5381bee	-6.8585985e-07
15	0xb6c43a24	-5.8480236e-06
16	0xb7276ae7	-9.978866e-06
17	0xb7244788	-9.791816e-06
18	0xb605c81b	-1.993502e-06
19	0xb72eeeb4	-1.0426786e-05
20	0x36a44c66	4.896475e-06
21	0xb653e3f7	-3.1574143e-06
22	0xb727cec3	-1.0002116e-05
23	0xb64a3fe6	-3.013754e-06
24	0xb70d791b	-8.432452e-06
25	0xb64e9b60	-3.0786832e-06
26	0xb685cf44	-3.9878378e-06
27	0xb71447e0	-8.838222e-06
28	0x37272134	9.961706e-06
29	0xb64992a8	-3.00367e-06
30	0xb6462c7f	-2.95302e-06
31	0x375e1641	1.32374125e-05
32	0xb5399e2b	-6.9148035e-07
33	0x36459fb4	2.9448247e-06
34	0x37d6602f	2.5555577e-05
35	0xb68c3759	-4.1787684e-06
36	0xb662fb69	-3.3822964e-06
37	0xb692bf72	-4.3734262e-06
38	0xb72a1c2e	-1.0139351e-05
39	0xb6ab9eab	-5.1146685e-06
40	0xb7205468	-9.5563955e-06
41	0xb7513c75	-1.2471447e-05
42	0xb78ad8f0	-1.6551901e-05
43	0xb65543af	-3.177887e-06
44	0x365ab628	3.259056e-06
45	0x37460dc4	1.1804925e-05
46	0xb6b67546	-5.437675e-06
47	0x37393411	1.1038982e-05
48	0xb6079694	-2.0204216e-06
49	0x35b75770	1.366001e-06
50	0xb76975f1	-1.3915343e-05
51	0x363fbfee	2.8572936e-06
52	0x35099e4f	5.1266846e-07
53	0x36050c6e	1.982578e-06
54	0xb71c6c20	-9.323499e-06
55	0x37403b15	1.1457848e-05
56	0x3657ab5f	3.2137248e-06
57	0xb75c627a	-1.313595e-05
58	0x3719a16a	9.157093e-06
59	0xb7a5f1ef	-1.9782192e-05
60	0xb63681f1	-2.719575e-06
61	0x36de464f	6.6243006e-06
62	0xb8022b86	-3.103495e-05
63	0x375be9d4	1.310786e-05

weight f4 [64]
0	0x3e4b0a23	0.19828086
1	0x3eb3946d	0.35074177
2	0x3e6c9445	0.23103435
3	0x3ec07bda	0.3759449
4	0x3ec87618	0.39152598
5	0x3ea2ae8c	0.31773794
6	0x3eb6002d	0.3554701
7	0x3e30570f	0.1722071
8	0x3e4cf234	0.20014268
9	0x3eb356f1	0.3502727
10	0x3ecc04ab	0.3984731
11	0x3eeac23a	0.45851308
12	0x3e9c04d7	0.30472443
13	0x3dfa4300	0.122198105
14	0x3ebb539c	0.36587226
15	0x3eeb650d	0.45975533
16	0x3f0606db	0.5235421
17	0x3e22bace	0.15891573
18	0x3e539179	0.20660962
19	0x3ec57a81	0.38570026
20	0x3eba99cb	0.3644546
21	0x3e0ded5a	0.13860074
22	0x3e9d536d	0.3072771
23	0x3ebe847e	0.3721046
24	0x3eb39b1d	0.3507928
25	0x3ed3782f	0.4130263
26	0x3ee81702	0.45330054
27	0x3eac89e2	0.33698946
28	0x3e2c2744	0.16811854
29	0x3ed225a9	0.41044357
30	0x3e5b5927	0.21420728
31	0x3ebc93b5	0.36831442
32	0x3e6b8650	0.23000455
33	0x3edfac6f	0.43686244
34	0x3ec3c84d	0.38238755
35	0x3e97abb5	0.2962319
36	0x3e749ee8	0.23888743
37	0x3eb9df2f	0.36303088
38	0x3ede5e97	0.4343154
39	0x3e8b308d	0.2718548
40	0x3ebb866b	0.3662599
41	0x3e8ebb68	0.27877355
42	0x3e84d342	0.25942427
43	0x3e367c27	0.17820798
44	0x3e77f8f6	0.24216065
45	0x3eb44247	0.35206816
46	0x3ee98e55	0.45616403
47	0x3eb54e4b	0.35411295
48	0x3e8fefb8	0.28112578
49	0x3eb6118f	0.3556027
50	0x3ea45f29	0.3210385
51	0x3e891917	0.26776955
52	0x3e279161	0.16364051
53	0x3e9a74ed	0.30167332
54	0x3eff3de7	0.49851915
55	0x3e8cfbbf	0.27535817
56	0x3e80321e	0.25038236
57	0x3e18f783	0.14938168
58	0x3ecf919b	0.40540776
59	0x3f003725	0.50084144
60	0x3e5b53d7	0.21418701
61	0x3e4cc147	0.19995604
62	0x3eceebab	0.40414175
63	0x3ede7cfb	0.43454728

bias f4 [64]
0	0xbd8f9ce2	-0.07012345
1	0xbe17fc96	-0.14842448
2	0xbe140e71	-0.14458634
3	0xbe5cc4ec	-0.21559495
4	0xbddacbf1	-0.1068343
5	0xbc4ec182	-0.012619378
6	0xbe865858	-0.26239276
7	0xbddb7a44	-0.1071668
8	0xbdcae60e	-0.09907161
9	0xbc7cf98e	-0.015440358
10	0xbe14d1d6	-0.14533171
11	0xbe8a2cdd	-0.26987353
12	0xbd0a0d9b	-0.03370438
13	0xbd54f3a8	-0.05199018
14	0xbd9c8afe	-0.07643698
15	0xbecf4ae3	-0.40486822
16	0xbec0f243	-0.3768483
17	0x3cd5bba0	0.026090443
18	0xbe788cf8	-0.24272525
19	0xbe224b2d	-0.1584899
20	0xbe9492da	-0.2901829
21	0xbd13d26e	-0.036089353
22	0xbe88909c	-0.26672828
23	0xbdeea002	-0.11651613
24	0xbdf376ec	-0.11887917
25	0xbce0783c	-0.027401082
26	0xbe9f0a63	-0.31062612
27	0xbd5e754d	-0.054311085
28	0xbbb55316	-0.0055335863
29	0xbe39dfa2	-0.18151715
30	0xbd74d315	-0.059771616
31	0xbe276263	-0.16346125
32	0x3d8b4941	0.068010814
33	0xbe2d4ae9	-0.16923107
34	0xbe750428	-0.23927367
35	0x3cc6a878	0.024250254
36	0xbd40afb4	-0.047042564
37	0xbe700a1a	-0.23441353
38	0xbe8273c4	-0.25478947
39	0xbe932ae6	-0.28743666
40	0xbebb163a	-0.36540395
41	0xbc841515	-0.016123334
42	0xbe06ac82	-0.13151744
43	0xbd7723c7	-0.060336854
44	0xbc4269b7	-0.011866025
45	0xbd709335	-0.058734138
46	0xbe2061e6	-0.15662345
47	0xbc378856	-0.011201939
48	0x3c71ca9a	0.014757777
49	0xbe3385b2	-0.1753147
50	0xbd7da5ec	-0.061925814
51	0xbce0e39b	-0.02745228
52	0xbce56920	-0.02800423
53	0x3dd8a367	0.105780415
54	0xbec17fac	-0.37792718
55	0xbde4beb9	-0.1116919
56	0xbe64e4ca	-0.22352901
57	0x3e0a97dc	0.13534492
58	0xbe317ead	-0.17333479
59	0xbe7c530d	-0.24641056
60	0xbdd1c6b0	-0.10242975
61	0xbdfcf0d6	-0.12350623
62	0xbda8037f	-0.08203792
63	0xbe7fd0f1	-0.24982049
